notebooks/nn/model_backup/model_nn.pt (torch, 10923 bytes, 2 tensors)

fc1.weight f4 [8, 306]
000000 48 0d 8a bd b5 dc 0a 3d a2 db fd 3d 13 77 f3 bc
       -0.067408144 0.03390189 0.12395407 -0.029719865
000010 6c c5 32 3d 20 5d 69 3d 7f 17 66 bd ff b4 b3 3c
       0.043645307 0.056973577 -0.05617475 0.021936892
000020 44 43 ac 3d 2f 4c 93 3a 7a 94 f2 bc d1 a2 56 3d
       0.084112674 0.0011237914 -0.029611815 0.052401368
000030 08 73 61 3d cb 89 46 3d 46 46 43 3c 41 c2 56 bb
       0.055041343 0.048471253 0.01191861 -0.0032769593
000040 47 7f 85 3d 44 1a 3e 3d d6 11 af 3c d2 0c 55 3c
       0.06518417 0.046411768 0.02137081 0.013003545
000050 ee b0 20 3d 9b 63 a0 bc 99 3a ec 3c 64 c9 15 3c
       0.039231233 -0.019578746 0.028836535 0.009142254
000060 3c bc e7 bc 4f 29 26 bd 14 00 48 3d 8d dd 61 bd
       -0.028288 -0.04056674 0.0488282 -0.055142928
000070 0b d2 01 bd ec 75 93 3a 95 6d 4f bd 43 6d bf 3a
       -0.031694453 0.0011250353 -0.050641615 0.0014604706
000080 09 1a 59 3d ee 08 14 3d 42 b9 53 bd 37 04 6d 3b
       0.053003345 0.03614133 -0.051690347 0.0036165842
000090 fe 5b 5e 3d a1 67 88 bd 05 ca 6a bc e3 5b 2d 3c
       0.05428695 -0.06660391 -0.014330392 0.0105809895
0000a0 52 cf c9 3d d1 7e 4a be 71 63 02 3e ba 5d 8f 3d
       0.09853996 -0.19774939 0.12733246 0.07000299
0000b0 ae 6f b7 3d 60 6a 90 3c 2c cd 5b bd 33 aa f2 bc
       0.08956848 0.017628849 -0.053662464 -0.029622173
0000c0 8b 7a 93 3d ff c3 79 3c f4 da 84 bc be bb 43 3d
       0.072011076 0.015244483 -0.016217686 0.047786467
0000d0 f6 91 f3 3c 5e 78 24 be d4 2a c7 bd 56 a3 5c bb
       0.029732686 -0.16061541 -0.09724966 -0.0033666692
0000e0 47 c9 93 bd 71 90 b1 bb 88 33 e6 3c 71 75 0c bd
       -0.07216125 -0.00541883 0.028100744 -0.03429169
0000f0 bf 00 c0 bd 5a 94 a7 bb b7 1f c9 bb 1e 78 46 3a
       -0.09375142 -0.0051141204 -0.006137814 0.00075709994
000100 c1 5e 13 bd c3 08 c9 3c 43 57 7c 3d 81 b6 51 3b
       -0.035979036 0.02454031 0.061606657 0.003199965
000110 23 98 b8 3d 6a eb b6 3d 4c c4 ba 3d bd 49 37 3d
       0.09013393 0.089316204 0.09119472 0.044748057
000120 62 57 c2 3d f3 94 af bd d3 83 77 bd 7c b1 18 bd
       0.09489323 -0.08573332 -0.06042845 -0.037278637
000130 55 6e 4b 3c 0b 87 ef bc 3d 4f 3a 3d 1f d2 78 bd
       0.012416442 -0.029239198 0.045485724 -0.060747262
000140 d0 45 e4 3c ca 53 2d 3d bb 3e 11 3d 27 7c 9b 3b
       0.02786532 0.042316236 0.035460215 0.0047450247
000150 c0 10 95 3b c9 7a 9c bc d8 97 91 bb a2 56 eb bc
       0.004549116 -0.019101517 -0.00444315 -0.028727833
000160 39 56 ca bc 4e bc 85 bd af cc 0e bc f2 15 b4 bd
       -0.024699317 -0.06530057 -0.008715793 -0.08793248
000170 99 2a a6 bd 54 99 85 bc ea 07 83 bd 9a 24 27 3c
       -0.081135936 -0.016308464 -0.06397994 0.010201598
000180 6d 9e 77 3c cb b8 2d 3d a2 96 23 3d 8f db 55 3c
       0.015113455 0.04241256 0.039938577 0.013052835
000190 ce bc 01 3c 16 7e ac 3c 2b 89 b9 3d d4 d4 36 3d
       0.00791855 0.021056216 0.09059366 0.044636562
0001a0 80 a7 b6 3d f4 95 bb 3d 14 32 04 3d c7 6f b5 3c
       0.08918667 0.09159461 0.03227432 0.022148026
0001b0 02 f5 3a 3d c2 72 d3 bc d9 ae 8f bd d8 b9 44 bd
       0.045643814 -0.025811557 -0.070157714 -0.048028797
0001c0 80 69 09 3d 03 44 15 bb 72 1e b5 3d 83 71 9e 3d
       0.03354788 -0.0022776134 0.088436976 0.077364944
0001d0 8d bc 35 3c 0f 5d 37 3a 79 c5 57 bb 93 73 9c bc
       0.011092317 0.0006994763 -0.00329241 -0.019098079
0001e0 68 58 c5 bc f7 a4 86 bc ca 97 10 bd f0 99 45 bc
       -0.024090007 -0.016436083 -0.035301007 -0.012060627
0001f0 a7 73 75 bc 88 34 48 bd 9b c0 b6 bc 11 98 b3 bc
       -0.014981187 -0.048878223 -0.022308638 -0.021923097
000200 0c 80 03 bd 46 ea d9 3c 7c 3b 88 3c e2 a7 16 3d
       -0.032104537 0.026600968 0.016629927 0.0367812
000210 a0 08 49 3d 08 1f 76 3d 81 b0 7b 3d 98 74 5b 3c
       0.04908049 0.060088187 0.061447624 0.013394497
000220 e8 28 73 bd f6 c9 4a bd c7 f3 88 bd 12 ec 8d bd
       -0.059365183 -0.04950901 -0.06687122 -0.069297925
000230 30 08 43 bd f2 86 88 3d 5e 85 1b 3e b0 9a 61 bc
       -0.04761523 0.06666364 0.15187594 -0.0137697905
000240 9c d5 bf 3c cd f2 b0 bc 0a 19 5c bd cf 2f 8a 3d
       0.023417287 -0.021600151 -0.053734817 0.067474
000250 0a 77 cd 3c e3 59 0d bd 9d 33 97 bc c2 1a 86 bd
       0.025081176 -0.03450955 -0.018457228 -0.065480724
000260 0f cb 19 bc 5f 08 1e 3d 05 76 31 3c 10 48 87 bc
       -0.009386792 0.038582202 0.010831361 -0.016513854
000270 35 34 34 bd f9 fc 6b bd 68 3b 95 bc e3 6c 17 bc
       -0.0439951 -0.0576143 -0.018216804 -0.009242269
000280 63 c2 11 3d 39 e2 b4 3c 9c 22 c3 3c 2e e6 63 3d
       0.035585772 0.022080528 0.023820214 0.05563944
000290 5c 24 3c 3c 24 51 41 3d 83 ec 02 3d c2 2a 39 3d
       0.011483278 0.047196522 0.031963836 0.045206793
0002a0 9c bd 11 3d 80 5c d8 3b 37 41 9c bc 30 78 14 bb
       0.035581216 0.0066028237 -0.019074066 -0.0022654645
0002b0 46 ed b0 3b 33 1a 42 3d 6e a5 9d 3c d2 a9 6d 3d
       0.005399379 0.047388267 0.019243922 0.05802328
0002c0 aa 2d e2 bd eb 48 26 3c f7 73 32 3d 13 08 ad 3b
       -0.11043866 0.010149221 0.043567624 0.0052805035
0002d0 5d 05 7f be ae e7 a0 bc 70 23 b1 3c a7 b6 71 bd
       -0.2490439 -0.019641723 0.021623343 -0.05901208
0002e0 d4 5f 5a bd cd 75 b6 3b 40 51 90 bd c4 38 f5 3b
       -0.053314045 0.005568242 -0.07046747 0.0074835736
0002f0 c1 0e bf ba 3a 5a 58 3c 56 88 21 bd 8c 26 0a bd
       -0.001457654 0.013205105 -0.03943666 -0.033728167
000300 0a 82 3d bd c3 0f 22 bd 4b ca 04 bb b4 8c 80 3c
       -0.046266593 -0.039565813 -0.0020262178 0.015692092
000310 dc 2a ab bc cf 7d b6 3c 3c 65 c4 3b 39 88 04 bd
       -0.02089446 0.022276787 0.0059935134 -0.032356475
000320 29 6e ca bb d2 78 d9 bc 86 86 ac bc aa 88 17 bd
       -0.006177683 -0.02654687 -0.02106024 -0.036995567
000330 3c d5 2b 3e b6 d3 91 bb ba 00 38 bd b6 37 4b 3d
       0.16780561 -0.0044502867 -0.044922568 0.049613677
000340 e9 8a 2d bb 3b 46 4c bd d1 a0 a0 3c a6 5f 51 3d
       -0.0026480502 -0.049871664 0.019607933 0.051116608
000350 07 dc 5e bd a8 48 84 bc 5c 75 9e bd 17 f0 3b bd
       -0.054409053 -0.016147926 -0.07737228 -0.045883264
000360 fe 9a f8 3d 1b 51 5a 3d 96 0f fd bc e7 03 6c bc
       0.121389374 0.053300004 -0.030891221 -0.014405227
000370 ac 1d 74 bd 7b 88 2e 3b 18 21 6b bc 6e 56 62 bd
       -0.05959861 0.0026631642 -0.014351152 -0.055258207
000380 60 90 99 bd ed 5e 5b bd b4 18 70 bd 95 00 bd 3c
       -0.074982405 -0.053557325 -0.05861731 0.023071567
000390 7b 0e 86 3d 29 c7 c1 bc 3e db 71 3d 39 cd 6d bc
       0.06545731 -0.023654537 0.059046976 -0.014514261
0003a0 11 9e 77 bd 7d 22 47 bd 3f d0 72 3b 56 b9 23 3d
       -0.06045348 -0.048616875 0.0037050394 0.039971672
0003b0 b4 d8 99 3c 20 5e 8a ba ca 7e 18 bd d4 ac d4 bd
       0.01878009 -0.0010556616 -0.03723029 -0.10384527
0003c0 68 fb 7d bd 60 eb f0 3d bb ac 02 3d 47 20 7e 3d
       -0.062007338 0.11763644 0.03190301 0.0620425
0003d0 e9 43 3f be 29 58 89 3c ef 74 df bc 8d 64 04 bd
       -0.1867825 0.01676567 -0.027277438 -0.032322455
0003e0 54 70 f8 bd 83 1b f7 3c 32 02 bf bd bb 92 88 b9
       -0.121308 0.030164486 -0.093265906 -0.00026049264
0003f0 bd 8b d0 3c 5a 98 51 3d 74 5e 98 3d 40 ff a6 bd
       0.025457257 0.051170684 0.074398905 -0.08154154

fc1.bias f4 [8]
000000 4e b2 b4 b4 5e 9b 59 b5 b3 76 c3 34 6a 35 9e b4
       -3.3657346e-07 -8.106489e-07 3.6407945e-07 -2.9468657e-07
000010 48 1a 94 b5 5e 86 27 34 88 8a 39 b2 14 f3 f8 33
       -1.1034508e-06 1.560197e-07 -1.0799916e-08 1.15926156e-07
