notebooks/nn/model_backup/model_nn_init.pt (torch, 10943 bytes, 2 tensors)

fc1.weight f4 [8, 306]
000000 30 82 0a 3d 50 d5 83 3c 2c 50 65 3d 4d be 08 be
       0.033815563 0.016092926 0.05598466 -0.13353844
000010 f8 b6 08 3d 20 ef cb 3d 0c 88 1d 3d 3c 6c ea bd
       0.033377618 0.09957719 0.038459823 -0.11446425
000020 88 7c a2 3d c0 54 08 3b 19 b8 a8 bd 88 b7 04 3e
       0.07933909 0.0020802468 -0.08238239 0.12960637
000030 5c 30 05 3e 6c 04 20 3d d2 a8 89 bd 1e e7 51 bd
       0.13006729 0.039066717 -0.06721653 -0.0512458
000040 84 9f 6b 3d 40 a1 0e 3b 32 6e d1 3d aa d4 56 bd
       0.057525173 0.0021763593 0.10226096 -0.052448906
000050 af 18 82 bd 35 a9 d9 bd 30 53 39 bc 40 87 54 3b
       -0.06352364 -0.10627977 -0.011311337 0.0032429248
000060 d9 92 cf bd 1c 51 82 3d 12 4d d8 3d 5a 8d 54 bd
       -0.10135431 0.06363127 0.10561575 -0.051892616
000070 f8 dc 5a bc 12 0b 9c 3d a5 4c 0c be 86 dc 8f 3d
       -0.013358347 0.07619299 -0.13701113 0.070244834
000080 de b7 06 3e 6c 70 69 3d 14 8a a7 bd 94 e5 01 be
       0.13156077 0.05699198 -0.08180633 -0.12685233
000090 8c 08 52 3d 30 ea db 3d ea d4 9e 3d e4 25 99 3d
       0.051277682 0.10738027 0.07755454 0.0747793
0000a0 5c 6a da 3d f2 fd 86 bd 40 b5 52 3d e4 0a 3f 3d
       0.10664818 -0.06591405 0.051442385 0.046641245
0000b0 f4 d9 ea 3d 6c d7 ce 3d 08 76 98 3c 6a 8e a0 bd
       0.114673525 0.10099682 0.01861097 -0.07839663
0000c0 08 be 91 3d 80 2d a5 ba ec e7 a1 3d 1c c8 0e 3d
       0.07116324 -0.0012602061 0.07905564 0.034858808
0000d0 a4 01 66 3d 70 59 0a be 8a 12 a6 bd bc f7 9b 3d
       0.05615391 -0.1351068 -0.08109005 0.07615611
0000e0 7a be 0c be 4e fe 95 3d 30 f0 34 3d ff e1 e8 bd
       -0.13744536 0.073238954 0.044174373 -0.1137123
0000f0 e4 99 87 bc 30 8f d2 bc 38 3c 7c 3d 10 9a 2f bc
       -0.016552873 -0.025703043 0.061580867 -0.010717884
000100 c0 4c 96 bb 4a fa 6c bd 04 d2 9d 3d bd 92 0a be
       -0.004586786 -0.05785588 0.07706073 -0.13532539
000110 fe cc 8c 3d f0 37 86 3d b8 57 95 3d c5 a9 dd bd
       0.06875037 0.06553638 0.07292122 -0.108233966
000120 90 22 b3 3d 85 7e b4 bd 26 d7 bd 3d df 9c c3 bd
       0.08746827 -0.08813194 0.09269552 -0.09551405
000130 92 3c bf 3d 0a 5e 08 be 10 6f 27 3d 6a 17 53 bd
       0.09337725 -0.13317123 0.0408774 -0.051536
000140 c0 72 f8 3d 80 35 a5 3a 54 12 f0 3d 80 98 89 bb
       0.12131262 0.0012604445 0.11722246 -0.0041990876
000150 06 5d 1d bd e8 1e 7b bc 70 19 70 3c dc a0 0c be
       -0.038418792 -0.015327193 0.014654502 -0.13733238
000160 b8 d1 ea 3c 8c eb c2 bd 60 33 84 3d 07 c8 a9 bd
       0.028664455 -0.09517583 0.064551115 -0.08290105
000170 80 29 1e bd 64 32 02 3e 0d 95 04 be a6 e1 cf 3d
       -0.038613796 0.12714535 -0.12947483 0.10150461
000180 a0 24 ff 3b a0 e1 2d 3c 00 b7 02 3a d2 13 de bd
       0.0077863485 0.010612875 0.00049863756 -0.10843624
000190 32 17 04 be c2 18 9c bd 9c de bc 3d 18 a6 76 bd
       -0.12899473 -0.0762191 0.09222147 -0.060216993
0001a0 ca 36 b3 3d 98 be c3 3d 3a 08 ce bd 66 59 f1 bd
       0.087506846 0.09557837 -0.10060163 -0.117846295
0001b0 2e a4 00 be 6c f9 17 bd 80 98 e6 3a 82 c3 06 3e
       -0.1256263 -0.0371031 0.0017593056 0.13160518
0001c0 1c 24 bd 3d c4 43 ef 3d d2 60 a7 3d e2 f1 3b bd
       0.09235403 0.11682847 0.08172764 -0.045884974
0001d0 4c 4a 3f 3d ea 03 04 be e0 10 27 bd d8 3f d8 bd
       0.046701714 -0.12892118 -0.040787578 -0.10559052
0001e0 94 e7 d5 bc c4 9c 55 3d b6 2a b4 bd 44 0f 9d 3d
       -0.026111402 0.052151456 -0.08797209 0.07668927
0001f0 c8 aa 86 3d 8e ae c1 bd bf 4c 0b be 54 c2 aa 3d
       0.06575543 -0.09457122 -0.13603495 0.083378464
000200 c7 4d 8a bd 04 d4 f8 3d e0 f1 9c 3b 40 22 07 bc
       -0.06753116 0.12149814 0.004789576 -0.008247912
000210 28 5c f2 3c 26 c7 83 3d ac 4d 8c 3d 61 bf a4 bd
       0.02958496 0.06434469 0.06850752 -0.08044315
000220 f8 3e 51 3d ea d4 bc 3d 28 a8 97 3c 30 6d 07 3c
       0.051085442 0.09220298 0.0185128 0.008265778
000230 c0 e9 cc 3d 00 f7 ed 3b 88 dd c4 3d 7c 0a 1b bd
       0.10005522 0.0072621107 0.09612566 -0.037851796
000240 80 f7 a9 3d 80 96 a2 bb 80 af 0e 3b 86 d3 27 bd
       0.0829916 -0.0049617887 0.0021772087 -0.04097321
000250 7a c9 b0 bd 54 ff a9 bd d4 96 f9 3d 25 b8 ab bd
       -0.086321786 -0.08300653 0.12186971 -0.08384732
000260 a0 3e 9d bd 10 6d e3 3d a8 4c 78 bc 30 d0 af bc
       -0.076779604 0.111047864 -0.015154995 -0.021461576
000270 41 7b 03 be 40 d1 01 3b d2 d3 dd 3d e6 6f 4e bd
       -0.12839986 0.001980856 0.10831417 -0.050399683
000280 c0 3a 67 3b 80 b5 d5 bb e4 f1 c1 bd fa bc a7 3d
       0.003528282 -0.0065218806 -0.09469965 0.08190341
000290 37 21 bd bd 58 4e f6 3d a0 fb 7b 3d a8 a9 e6 3d
       -0.09234851 0.12026662 0.061519265 0.11262828
0002a0 86 ac 9a 3d 92 f4 1c bd 62 3a 06 be 76 71 a9 bd
       0.075524375 -0.038319178 -0.13108209 -0.08273594
0002b0 b4 23 78 bd be 79 82 3d 20 3a a4 bc 80 97 86 bc
       -0.060580924 0.06370877 -0.020047247 -0.016429663
0002c0 50 03 94 bd 10 fc 81 bc b8 cf ba 3c 4c 10 09 3d
       -0.07227194 -0.015867263 0.022804126 0.033462808
0002d0 f7 e0 06 be b0 bc 9e 3c 04 53 f6 bd 5a a1 64 bd
       -0.13171755 0.019377083 -0.12027553 -0.05581794
0002e0 28 1e 69 bd 1c 82 83 bd 7c 23 fc 3d 6c f3 ec bc
       -0.056913525 -0.06421301 0.123114556 -0.028924666
0002f0 10 89 b6 3c ee 28 06 3e 2c 8d 9a bc e0 07 63 3c
       0.022282153 0.13101551 -0.018866144 0.013856858
000300 20 eb dd bb b0 3e ee bc 60 ca ff 3b 64 bd 39 bd
       -0.006772414 -0.029082626 0.0078061074 -0.045346633
000310 64 3c 9a 3d 6a 33 83 3d dc 1e 8f 3d 72 8a e1 bd
       0.0753105 0.06406291 0.06988308 -0.110127345
000320 a0 fc 29 3c c4 c0 aa bd 8c ee 6d bd 0d 9a 06 be
       0.010375172 -0.083375484 -0.058088824 -0.13144703
000330 b8 4b 02 3d b4 b9 4e bd 00 3d 83 bb dc b7 5e 3d
       0.031810492 -0.05047007 -0.0040050745 0.05437456
000340 4c ab c3 3d 00 4f 7d 3a f8 72 00 be 00 88 c8 3a
       0.09554157 0.0009662956 -0.12543857 0.001529932
000350 a0 8f fe bb 6c 19 67 3d 00 76 90 b9 1c fc b2 bd
       -0.0077685863 0.05642073 -0.00027553737 -0.08739492
000360 84 fb f9 3d b0 47 9c bc ac 77 54 3d 6c 2d 7b 3d
       0.12206176 -0.019077152 0.05187194 0.061322615
000370 6a db b2 3d 37 ab 06 be 50 72 fb 3c 72 73 5b bd
       0.08733256 -0.13151251 0.030694157 -0.053576894
000380 4c f1 92 bc 60 3b 40 bc fc c2 e0 bd 58 ea 36 bd
       -0.017937325 -0.011732906 -0.1097469 -0.04465708
000390 85 2d c1 bd 80 fb 90 bd ec 20 0b 3e db 92 ef bd
       -0.0943251 -0.0707922 0.13586777 -0.11697932
0003a0 1e 7e 5a bd 14 0f 96 bc aa 29 a4 bd c8 19 90 3d
       -0.05334293 -0.018317737 -0.08015759 0.070361674
0003b0 cc 6c 79 bd ab 56 f1 bd 38 7e a4 bd fe 48 d2 bd
       -0.060894772 -0.11784109 -0.08031887 -0.102678284
0003c0 1a f0 09 bd 28 17 f6 3c 10 c0 e8 3c 3f 58 f8 bd
       -0.033676244 0.030040339 0.028411895 -0.121262066
0003d0 71 af 8e bd e0 53 bf 3d 08 14 06 be c0 cd ed 3d
       -0.069670565 0.0934217 -0.13093579 0.11611509
0003e0 40 21 a4 bb e0 13 31 3c 80 92 5a 3c 64 9b 64 3d
       -0.0050088465 0.010807961 0.013340592 0.055812255
0003f0 08 6e c3 3d ec a3 90 bd f0 12 19 3d 82 e9 00 bd
       0.09542471 -0.070625156 0.037371576 -0.03147269

fc1.bias f4 [8]
000000 10 6c fe bc f0 93 66 3c 2c 80 2e bd 81 ff 64 bd
       -0.031057388 0.014073357 -0.042602703 -0.05590773
000010 2e c7 36 bd 2a 30 d1 bc 80 50 48 bb 0c 95 18 bd
       -0.044623546 -0.025535662 -0.003056556 -0.037251517
