notebooks/nn/model_backup/model_nn.pt (torch, 10923 bytes, 2 tensors)

fc1.weight f4 [8, 306]
00000000: ddb4 8bbd 1ff3 863d 8d3c d93d 0f8c 47bd
00000010: 082a bb3d 8309 9c3d e466 68bc 3662 0abd
00000020: dba5 943d 3cb5 823c 3d49 08bd 3a2f 913d
00000030: 5fbf 993d 86c7 f03c 2c4f 463c 1676 48bd
00000040: 777a 8b3d 9980 b8bc d72b 423d b844 ff3c
00000050: 9132 773c 7c21 c9bd 273d ab3c 587c 053c
00000060: 0d75 85bd 5ab0 583c 71c3 693d 8d0d 80bd
00000070: 73e2 e1bb e556 a33c bb73 e3bd de42 203d
00000080: 065a 8b3d 9224 403d 1656 8dbd d47c 68bc
00000090: 0164 083e eb48 743d 09bb 0abc c12b c73b
000000a0: 17d9 d33d 3022 e8bd 4197 063e 96ca 163d
000000b0: 49c9 843d 8170 5a3d b47a 7cbd 8152 00bd
000000c0: b6fc 3d3d 4f85 cb3c 0926 e9bc 49b1 8c3d
000000d0: ca3e bf3c 86f9 45be 8db0 b8bd 1ccc 113d
000000e0: 2004 00be 7adb 133c c3c1 a53c 0d0a 77bd
000000f0: f12a 4dbd afef 293c 6d3d 1a3c 773d c7bb
00000100: 3114 f0bc ebd8 cbbc be34 663d 68f6 5dbd
00000110: 3188 e43d 4327 e13d 9dea e83d ff5b a53c
00000120: ca33 f83d d80f 05be a9a3 b8bc 1d30 cabd
00000130: 7861 e236 40d7 b1bd aa7b 223d 58d1 90bd
00000140: d7da 6a3d 4338 08bc d842 0a3d 637c eb3c
00000150: 102c aa3c 0202 a9bc 5820 93ba 550a e3bc
00000160: 106b 89bb 4590 5dbd 461b cc3a a5fc f4bd
00000170: 35d0 60bd 3a80 723d 1508 d7bd c4ef 373d
00000180: 6625 333c ae4a c93c 6d3d 9c3c e1f2 24bd
00000190: 59f7 52bd a7e3 b9bc fc25 d83d 9552 af3c
000001a0: acd4 d23d 31ef db3d 9742 83ba 7bf2 84bc
000001b0: 447b ff3c 7058 973c e13f 84bd 005c 8d38
000001c0: 407c 963d b323 363d aa75 b33d 7881 ea3c
000001d0: 771c 4f3c 55a8 87bc 0053 f1bc 7318 16bd
000001e0: 0e20 0bbd 1624 b4bc 3021 99bd bf0c 92bc
000001f0: ac96 53bc 742f 8ebd b8cb 7cbd 3b92 e13c
00000200: ba59 2abd d5a1 963d 6155 943c c163 db3c
00000210: 9f22 4c3d d06e 913d 3ca0 963d d580 8dbc
00000220: e260 72bd e286 20bd 5d76 99bd 6e97 a3bd
00000230: afd7 10bd e75d 9f3d c7e1 093e 6cdb 6fba
00000240: fc55 b03d 1d55 d8bc 16d6 42bc 4d65 6e3c
00000250: 28da 9fbc fdab 73bd 6c2b a03c c5d9 1fbd
00000260: e56a 3abb 8739 713d de93 ea3c 0f98 2fbd
00000270: 5e2c cabd 649c 8bbd 3560 ee3c 25c1 8d3c
00000280: ab60 0f3d cbc4 83bc 06fc f0bc 1d3e 8f3d
00000290: 4ca7 19bd a614 b63d 7e67 693d 5593 ad3d
000002a0: 4348 843d da63 333b 5db8 61bd 0643 d5bc
000002b0: 1b82 50bc a42b 7d3d e203 3e3c af4f 9d3d
000002c0: bc85 69bd c5b1 383c 9c38 213c faa0 afba
000002d0: f030 5cbe 4c0c f43b 475e a1bc d84a a5bd
000002e0: a2f6 6fbd 152e 2abb 2443 92bc 4b0e 18bc
000002f0: bffb 4abb 49df f23c a22e 23bd 90ce d5bc
00000300: da74 45bd 247f 34bd a3f0 bdbc 0a36 74bc
00000310: 1523 c13c b7a7 2d3d f60c 303d 4dc8 43bd
00000320: 9643 823c 0ac5 09bd 7efe a5bc 7d12 72bd
00000330: fad0 c73d cf61 ee3b 5b22 d2bb 8d32 cb3c
00000340: 322a 6c3d c25d 54bd 6e88 563c 9cee ec3c
00000350: 2643 9bbd 26bc b33c 807d 51bd e370 6cbd
00000360: fa89 aa3d 1a9c faba fdbd 1d3c d31c 40bd
00000370: 1555 0ebc f3d8 76bd e221 07bc cded 1fbd
00000380: 6548 0639 efeb 9cbd 3d4a 97bd 40c0 a3bb
00000390: b310 cabc 78e5 13bd 0337 8d3d c4d8 e9bc
000003a0: e8b1 b3bb 8fac 343c ccb4 2dbc cfe6 a03d
000003b0: d893 3cbc f1a0 16bd 0863 edbd 7259 d9bd
000003c0: e759 01be 3428 ab3d 20da cbbc 402c 96bb
000003d0: 431d 2bbe 3edd 093d 12d2 8fbd 5bc1 1cbc
000003e0: 2ccb 93bd 2c42 423c bbdd 84bc e0fa 833d
000003f0: db6a 863d 79c8 5c3c 6a1b 6f3d d666 1ebd
-0.06821606 0.065893404 0.10607252 -0.048717555 0.09138876 0.07619002 -0.014184687 -0.033785067
0.07258197 0.01595556 -0.03327297 0.07089086 0.07507204 0.029392015 0.012103837 -0.04894074
0.06810468 -0.022522258 0.04740509 0.031160697 0.01508774 -0.0982084 0.020903183 0.008147322
-0.06516466 0.013225639 0.057071153 -0.062525846 -0.00689345 0.019938895 -0.11106058 0.03912627
0.0680428 0.046909876 -0.06901185 -0.014189918 0.13319398 0.059639852 -0.008467444 0.006078214
0.10344141 -0.11334646 0.13143636 0.036814295 0.064837046 0.05332995 -0.061640456 -0.03132868
0.046383582 0.02484384 -0.02846052 0.06869752 0.02334537 -0.19333467 -0.090180494 0.035595044
-0.12501574 0.009024495 0.020233994 -0.06031232 -0.05008978 0.010372086 0.009414059 -0.006080325
-0.029306503 -0.024883708 0.056202643 -0.05419007 0.11158789 0.10993817 0.11372874 0.020185469
0.12119253 -0.12994325 -0.022538977 -0.09872458 6.7466717e-06 -0.08683634 0.039668716 -0.07071179
0.05733761 -0.008314195 0.033755153 0.028745836 0.020772964 -0.02063084 -0.0011224849 -0.027714888
-0.004193671 -0.054092664 0.0015572093 -0.119622506 -0.05488606 0.059204318 -0.104995884 0.044906393
0.010934209 0.024571743 0.019072259 -0.04027069 -0.05150542 -0.02269156 0.1055412 0.021401683
0.1029447 0.107389815 -0.0010014352 -0.016228905 0.031186707 0.018474787 -0.064574964 6.74054e-05
0.073479176 0.04446764 0.08762677 0.028626189 0.012641064 -0.01655976 -0.029458523 -0.03664441
-0.033966117 -0.021989863 -0.07477033 -0.017828343 -0.012914341 -0.06942645 -0.06171772 0.027535548
-0.041589476 0.07355086 0.018107118 0.026780965 0.049837705 0.07101214 0.07354781 -0.017273346
-0.059174426 -0.039191134 -0.07493279 -0.07987867 -0.035361942 0.07781582 0.13465033 -0.0009149823
0.0861015 -0.026407773 -0.011891862 0.014550519 -0.019513205 -0.059490193 0.019551955 -0.03902604
-0.0028445062 0.058892753 0.028634962 -0.042869624 -0.098717436 -0.068169385 0.02909861 0.017304013
0.0350043 -0.01608505 -0.02941705 0.06994269 -0.037513062 0.08890657 0.056983463 0.08475367
0.06459095 0.0027372749 -0.055107463 -0.026032936 -0.012726332 0.061809197 0.011597605 0.07681214
-0.057012305 0.011272852 0.009840157 -0.0013399415 -0.21503043 0.007447755 -0.019698275 -0.08070916
-0.058584817 -0.0025967408 -0.01785428 -0.009280751 -0.0030972806 0.029647486 -0.039839394 -0.026099473
-0.04820714 -0.044066563 -0.023186034 -0.014905462 0.023576299 0.042396273 0.04298111 -0.047798444
0.015901368 -0.033635177 -0.020262953 -0.059099663 0.09756656 0.0072748433 -0.006412787 0.024804378
0.057657428 -0.051847227 0.013094051 0.028922372 -0.07581167 0.021940302 -0.051145077 -0.057724845
0.08327098 -0.0019120008 0.009627816 -0.04690249 -0.008687277 -0.060265493 -0.008247824 -0.039045144
0.00012806205 -0.07662188 -0.07387207 -0.004997283 -0.024666166 -0.03610751 0.06895258 -0.028545745
-0.0054838546 0.011027469 -0.010602187 0.07856523 -0.011509858 -0.03677458 -0.11591154 -0.106127635
-0.12631951 0.083572775 -0.024884284 -0.0045829117 -0.16710381 0.03365826 -0.070224896 -0.009567584
-0.07216486 0.011856597 -0.01621901 0.06444335 0.0656335 0.013475531 0.058375753 -0.03867229

fc1.bias f4 [8]
00000000: 32e6 a134 20c8 a733 3ebc a534 65a4 1235
00000010: 7cd0 0135 2e71 2db5 ef1b 98b6 00d1 9db3
3.0156076e-07 7.812946e-08 3.087061e-07 5.4628464e-07 4.835963e-07 -6.461222e-07 -4.533205e-06 -7.348899e-08
